Random Seed:  999
Generator(
  (conv0): Conv3d(1, 32, kernel_size=(3, 3, 3), stride=(1, 1, 1), padding=(1, 1, 1), bias=False)
  (block0): _DenseBlock(
    (denselayer1): _DenseLayer(
      (norm): BatchNorm3d(32, eps=1e-05, momentum=0.1, affine=True, track_running_stats=True)
      (elu): ELU(alpha=1.0, inplace=True)
      (conv): Conv3d(32, 16, kernel_size=(3, 3, 3), stride=(1, 1, 1), padding=(1, 1, 1), bias=False)
    )
    (denselayer2): _DenseLayer(
      (norm): BatchNorm3d(48, eps=1e-05, momentum=0.1, affine=True, track_running_stats=True)
      (elu): ELU(alpha=1.0, inplace=True)
      (conv): Conv3d(48, 16, kernel_size=(3, 3, 3), stride=(1, 1, 1), padding=(1, 1, 1), bias=False)
    )
    (denselayer3): _DenseLayer(
      (norm): BatchNorm3d(64, eps=1e-05, momentum=0.1, affine=True, track_running_stats=True)
      (elu): ELU(alpha=1.0, inplace=True)
      (conv): Conv3d(64, 16, kernel_size=(3, 3, 3), stride=(1, 1, 1), padding=(1, 1, 1), bias=False)
    )
    (denselayer4): _DenseLayer(
      (norm): BatchNorm3d(80, eps=1e-05, momentum=0.1, affine=True, track_running_stats=True)
      (elu): ELU(alpha=1.0, inplace=True)
      (conv): Conv3d(80, 16, kernel_size=(3, 3, 3), stride=(1, 1, 1), padding=(1, 1, 1), bias=False)
    )
  )
  (comp0): Conv3d(128, 32, kernel_size=(1, 1, 1), stride=(1, 1, 1), bias=False)
  (block1): _DenseBlock(
    (denselayer1): _DenseLayer(
      (norm): BatchNorm3d(32, eps=1e-05, momentum=0.1, affine=True, track_running_stats=True)
      (elu): ELU(alpha=1.0, inplace=True)
      (conv): Conv3d(32, 16, kernel_size=(3, 3, 3), stride=(1, 1, 1), padding=(1, 1, 1), bias=False)
    )
    (denselayer2): _DenseLayer(
      (norm): BatchNorm3d(48, eps=1e-05, momentum=0.1, affine=True, track_running_stats=True)
      (elu): ELU(alpha=1.0, inplace=True)
      (conv): Conv3d(48, 16, kernel_size=(3, 3, 3), stride=(1, 1, 1), padding=(1, 1, 1), bias=False)
    )
    (denselayer3): _DenseLayer(
      (norm): BatchNorm3d(64, eps=1e-05, momentum=0.1, affine=True, track_running_stats=True)
      (elu): ELU(alpha=1.0, inplace=True)
      (conv): Conv3d(64, 16, kernel_size=(3, 3, 3), stride=(1, 1, 1), padding=(1, 1, 1), bias=False)
    )
    (denselayer4): _DenseLayer(
      (norm): BatchNorm3d(80, eps=1e-05, momentum=0.1, affine=True, track_running_stats=True)
      (elu): ELU(alpha=1.0, inplace=True)
      (conv): Conv3d(80, 16, kernel_size=(3, 3, 3), stride=(1, 1, 1), padding=(1, 1, 1), bias=False)
    )
  )
  (comp1): Conv3d(224, 32, kernel_size=(1, 1, 1), stride=(1, 1, 1), bias=False)
  (block2): _DenseBlock(
    (denselayer1): _DenseLayer(
      (norm): BatchNorm3d(32, eps=1e-05, momentum=0.1, affine=True, track_running_stats=True)
      (elu): ELU(alpha=1.0, inplace=True)
      (conv): Conv3d(32, 16, kernel_size=(3, 3, 3), stride=(1, 1, 1), padding=(1, 1, 1), bias=False)
    )
    (denselayer2): _DenseLayer(
      (norm): BatchNorm3d(48, eps=1e-05, momentum=0.1, affine=True, track_running_stats=True)
      (elu): ELU(alpha=1.0, inplace=True)
      (conv): Conv3d(48, 16, kernel_size=(3, 3, 3), stride=(1, 1, 1), padding=(1, 1, 1), bias=False)
    )
    (denselayer3): _DenseLayer(
      (norm): BatchNorm3d(64, eps=1e-05, momentum=0.1, affine=True, track_running_stats=True)
      (elu): ELU(alpha=1.0, inplace=True)
      (conv): Conv3d(64, 16, kernel_size=(3, 3, 3), stride=(1, 1, 1), padding=(1, 1, 1), bias=False)
    )
    (denselayer4): _DenseLayer(
      (norm): BatchNorm3d(80, eps=1e-05, momentum=0.1, affine=True, track_running_stats=True)
      (elu): ELU(alpha=1.0, inplace=True)
      (conv): Conv3d(80, 16, kernel_size=(3, 3, 3), stride=(1, 1, 1), padding=(1, 1, 1), bias=False)
    )
  )
  (comp2): Conv3d(320, 32, kernel_size=(1, 1, 1), stride=(1, 1, 1), bias=False)
  (block3): _DenseBlock(
    (denselayer1): _DenseLayer(
      (norm): BatchNorm3d(32, eps=1e-05, momentum=0.1, affine=True, track_running_stats=True)
      (elu): ELU(alpha=1.0, inplace=True)
      (conv): Conv3d(32, 16, kernel_size=(3, 3, 3), stride=(1, 1, 1), padding=(1, 1, 1), bias=False)
    )
    (denselayer2): _DenseLayer(
      (norm): BatchNorm3d(48, eps=1e-05, momentum=0.1, affine=True, track_running_stats=True)
      (elu): ELU(alpha=1.0, inplace=True)
      (conv): Conv3d(48, 16, kernel_size=(3, 3, 3), stride=(1, 1, 1), padding=(1, 1, 1), bias=False)
    )
    (denselayer3): _DenseLayer(
      (norm): BatchNorm3d(64, eps=1e-05, momentum=0.1, affine=True, track_running_stats=True)
      (elu): ELU(alpha=1.0, inplace=True)
      (conv): Conv3d(64, 16, kernel_size=(3, 3, 3), stride=(1, 1, 1), padding=(1, 1, 1), bias=False)
    )
    (denselayer4): _DenseLayer(
      (norm): BatchNorm3d(80, eps=1e-05, momentum=0.1, affine=True, track_running_stats=True)
      (elu): ELU(alpha=1.0, inplace=True)
      (conv): Conv3d(80, 16, kernel_size=(3, 3, 3), stride=(1, 1, 1), padding=(1, 1, 1), bias=False)
    )
  )
  (recon): Conv3d(416, 1, kernel_size=(1, 1, 1), stride=(1, 1, 1), bias=False)
)
# generator parameters: 411648
Discriminator(
  (main): Sequential(
    (0): Conv3d(1, 64, kernel_size=(3, 3, 3), stride=(1, 1, 1), padding=(1, 1, 1))
    (1): LeakyReLU(negative_slope=1)
    (2): Conv3d(64, 64, kernel_size=(3, 3, 3), stride=(2, 2, 2), padding=(1, 1, 1))
    (3): LayerNorm((64, 32, 32, 32), eps=1e-05, elementwise_affine=True)
    (4): LeakyReLU(negative_slope=1)
    (5): Conv3d(64, 128, kernel_size=(3, 3, 3), stride=(1, 1, 1), padding=(1, 1, 1))
    (6): LayerNorm((128, 32, 32, 32), eps=1e-05, elementwise_affine=True)
    (7): LeakyReLU(negative_slope=1)
    (8): Conv3d(128, 128, kernel_size=(3, 3, 3), stride=(2, 2, 2), padding=(1, 1, 1))
    (9): LayerNorm((128, 16, 16, 16), eps=1e-05, elementwise_affine=True)
    (10): LeakyReLU(negative_slope=1)
    (11): Conv3d(128, 256, kernel_size=(3, 3, 3), stride=(1, 1, 1), padding=(1, 1, 1))
    (12): LayerNorm((256, 16, 16, 16), eps=1e-05, elementwise_affine=True)
    (13): LeakyReLU(negative_slope=1)
    (14): Conv3d(256, 256, kernel_size=(3, 3, 3), stride=(2, 2, 2), padding=(1, 1, 1))
    (15): LayerNorm((256, 8, 8, 8), eps=1e-05, elementwise_affine=True)
    (16): LeakyReLU(negative_slope=1)
    (17): Conv3d(256, 512, kernel_size=(3, 3, 3), stride=(1, 1, 1), padding=(1, 1, 1))
    (18): LayerNorm((512, 8, 8, 8), eps=1e-05, elementwise_affine=True)
    (19): LeakyReLU(negative_slope=1)
    (20): Conv3d(512, 512, kernel_size=(3, 3, 3), stride=(2, 2, 2), padding=(1, 1, 1))
    (21): LayerNorm((512, 4, 4, 4), eps=1e-05, elementwise_affine=True)
    (22): LeakyReLU(negative_slope=1)
    (23): AdaptiveAvgPool3d(output_size=1)
    (24): Conv3d(512, 1024, kernel_size=(1, 1, 1), stride=(1, 1, 1))
    (25): LeakyReLU(negative_slope=1)
    (26): Conv3d(1024, 1, kernel_size=(1, 1, 1), stride=(1, 1, 1))
  )
)
# discriminator parameters: 31155777
Generator pre-training...
Jobs finished
                                  
================================= 
Global information about the job: 
================================= 
  
Job owner: lumah(56064)
Job name:  GAN-GPU
Node list: ravg1124
Job start: Thu Aug 25 15:34:53 CEST 2022
Job end:   Thu Aug 25 15:35:43 CEST 2022
…
